pytorch objects/expert_model_regime_0.pth (torch, 6077 bytes, 5 tensors)

net.0.weight f4 [32, 4]
000000 33 c4 95 3e 17 06 e7 3e 8f d7 c3 bd 61 38 f3 3e
       0.2925125 0.45121834 -0.09562599 0.4750395
000010 bd 79 0d be 5e e6 a0 3d cf f9 29 be 1a 40 a6 3e
       -0.1381597 0.07856439 -0.165992 0.3247078
000020 0d 7b a6 3e 42 d2 93 be eb 61 af 3e cf 91 1e 3e
       0.32515755 -0.2887135 0.34254393 0.15485309
000030 47 8a 6b 3e 40 be 06 3e 0c ef 3e 3e 4d d5 a5 bc
       0.23001967 0.13158512 0.18645877 -0.020243311
000040 b2 2b c3 3e 1f 21 a0 3d 54 ac 7c be d8 62 c3 3d
       0.38119274 0.07818817 -0.24675113 0.09540337
000050 72 f6 27 be 10 12 07 be cf 20 07 be f1 4c 87 3e
       -0.16402605 -0.13190484 -0.13196109 0.2642589
000060 e2 09 af be cd 70 55 be 10 d3 21 be 2a 2f 8f be
       -0.34187227 -0.20843811 -0.1580317 -0.2796567
000070 bd fe 23 3d 24 37 f0 be 82 11 e8 3e 6d ff ca be
       0.04003786 -0.4691707 0.45325857 -0.39648
000080 e5 e9 b3 3e 31 9c d9 3d c3 0f 10 be 29 f1 94 3e
       0.35139385 0.10625494 -0.14068513 0.2909024
000090 58 97 9f 3d b0 d6 ce 3e 00 e3 5f 3d 98 78 21 be
       0.077925384 0.4039817 0.054659843 -0.15768659
0000a0 74 78 6e 3d ea 10 44 bd 79 53 12 3e 7c 15 ec 3e
       0.05822034 -0.047867693 0.14289655 0.4611014
0000b0 c8 b7 a4 3e a8 d2 98 be f1 6a b5 3e 3b 27 d0 3c
       0.32171464 -0.29848218 0.35433152 0.025409332
0000c0 b5 2c 36 3e 29 eb 8f be d1 c9 f5 be c0 ea 36 be
       0.17790492 -0.281091 -0.48005536 -0.17862988
0000d0 3a 91 ca be b7 95 d0 3e c8 74 49 3e ed 6f 67 3e
       -0.39563924 0.40739223 0.19673455 0.2260129
0000e0 78 0a 19 3e a6 50 19 3d 13 a8 b2 3e b9 ca 9e be
       0.149454 0.037430428 0.34893855 -0.3101404
0000f0 8c 73 b3 bc 6e c5 b0 be 5e a9 33 3e b9 5f 3d be
       -0.021905683 -0.34525627 0.17545077 -0.18493547
000100 bb 58 f1 3d 60 b2 8e bd 58 fe bc 3e 9c 53 82 be
       0.11784502 -0.06967616 0.369128 -0.25454414
000110 84 1b 99 be 11 79 78 be c4 77 cd 3e e8 46 60 3e
       -0.29903805 -0.24264933 0.40130436 0.21902049
000120 41 47 cd 3e 81 32 b6 be 72 84 f6 be 19 af 9e be
       0.40093425 -0.35585406 -0.48147923 -0.30992964
000130 3b b7 8e be 89 ca 66 3e df 5e 56 3e 84 3e a4 3e
       -0.2787417 0.22538199 0.20934628 0.32078946
000140 5e 6b 1b be b3 45 bb be c8 58 87 3e a9 63 3c be
       -0.15177676 -0.36576614 0.26434922 -0.18397392
000150 0f 07 9a 3e ec dd bb bd 00 13 98 3e d6 cf b9 be
       0.3008351 -0.091731876 0.29701996 -0.3629138
000160 71 7b 4a be a6 fa 55 3e eb 09 16 3d 94 07 60 bd
       -0.19773652 0.20896396 0.036630552 -0.054694727
000170 91 83 92 3e 24 4d ba 3e 7e 05 ad be 5d ab 78 be
       0.28616002 0.3638698 -0.33793253 -0.2428412
000180 3f da d8 3e 1d 00 2e be 7c ca 17 be 95 77 fc be
       0.4235401 -0.1699223 -0.14823335 -0.49309984
000190 42 48 79 be 25 84 1f 3e b3 7a 88 bd de eb ad be
       -0.2434397 0.15577753 -0.06664028 -0.33969015
0001a0 23 02 52 bd 98 00 a6 be 6b a4 c2 be b1 8b 8a be
       -0.05127157 -0.32422328 -0.38016066 -0.270597
0001b0 b6 67 c4 be 35 9f 9c be a2 5f 02 3f 82 57 85 3d
       -0.38360375 -0.30590215 0.50927174 0.065108314
0001c0 96 8b 4b 3e ae b2 db be fd b9 95 be 79 e7 29 be
       0.19877467 -0.4290976 -0.2924346 -0.16592206
0001d0 ed c4 98 3d 4c 5d ea be 4f 4a 31 be 88 ee 8e be
       0.074594356 -0.45774305 -0.17313503 -0.2791636
0001e0 92 76 66 bc 80 6a 66 be a2 59 42 3c 75 39 b8 be
       -0.014066355 -0.22501564 0.01186219 -0.35981336
0001f0 11 11 92 be 50 81 83 be 30 8d 38 be be 98 bb be
       -0.28528646 -0.25684595 -0.18022609 -0.3663997

net.0.bias f4 [32]
000000 1d 16 c2 3e d1 c8 a6 bd 57 f5 b2 3e 12 c6 a6 3d
       0.37907496 -0.081437714 0.34952804 0.08143248
000010 c8 af d5 be e6 c1 d9 3e 34 89 29 be 91 ab 50 be
       -0.41735673 0.42530745 -0.16556245 -0.20377947
000020 2f e3 de be 50 81 fe be e6 a6 59 3d 7d 7d f4 bc
       -0.43532702 -0.49708033 0.053137682 -0.029844994
000030 2c 25 37 3e 37 22 c5 be 0d 1d a4 3e 37 a7 b1 be
       0.17885274 -0.38502666 0.32053414 -0.34697887
000040 0b 94 06 be 99 62 4d 3d d8 d2 4b 3e 82 78 be 3e
       -0.13142411 0.05014286 0.1990465 0.37201315
000050 9a ef fa 3e ad ad cf be d0 db 66 3d 51 46 74 be
       0.49010926 -0.40562192 0.056361973 -0.23854949
000060 9f af 30 bd d9 e9 cf be f0 22 e3 3e 73 a4 bf be
       -0.043136235 -0.406081 0.44362593 -0.37430152
000070 22 ea 78 3e 86 e4 50 3e f9 bc 57 3e d3 91 9e be
       0.24308065 0.20399675 0.21068181 -0.3097063

net.3.weight f4 [16, 32]
000000 3f d5 b6 3d 2e 43 8c 3d f8 76 7e ba f8 3b 6f bd
       0.08927392 0.06848751 -0.0009707059 -0.0584068
000010 b5 2f 81 3d e5 3b 9a 3c 86 ba 4f bd fb 7b d6 3d
       0.063079275 0.018827388 -0.050714992 0.10472866
000020 86 8e ab bc b5 4e c8 bd f9 15 67 bd 57 d6 8f 3c
       -0.020941984 -0.09780637 -0.05641744 0.01755826
000030 e8 48 53 3d 8b 58 8a bd 0b 17 ac bc b2 80 30 bd
       0.0515832 -0.067551695 -0.021007081 -0.043091483
000040 de cf ad bd ce 06 3a 3d 68 46 c0 3d a2 68 26 bd
       -0.08486913 0.045416646 0.09388429 -0.04062713
000050 da c5 ab 3c e6 a7 89 3d ee 43 be 3c bb 2a df bd
       0.020968366 0.06721477 0.02322575 -0.10896822
000060 32 a2 ef 3c e8 a7 90 3d 32 98 82 3d aa c3 9b 3b
       0.029252145 0.070632756 0.06376685 0.0047535496
000070 eb 51 53 3c e2 c5 3e bc f6 44 71 3c a4 73 b5 3c
       0.012897949 -0.011643859 0.014725914 0.022149868
000080 a9 6b 4c 3d a1 ea 13 3e c0 24 2e bd 58 7d 3b bc
       0.04990736 0.14444973 -0.042515516 -0.0114434585
000090 3d 00 e3 3c 40 39 8b bd 1d a6 81 3d 4a 50 35 3d
       0.027710075 -0.06798029 0.06330512 0.044266023
0000a0 7c b1 2a be 1e 9b 85 bd 43 9f cf 3d 9c c0 4f 3d
       -0.16669267 -0.06523727 0.10137799 0.050720796
0000b0 61 5e 5a bd f3 45 f2 bd 58 5c cf bc c3 49 c4 bd
       -0.053312663 -0.11829748 -0.025312588 -0.095843814
0000c0 ff 1d 1b 3c e2 0d af 3d 4d c5 ba 3d 7c b3 bb 3d
       0.009467601 0.0854757 0.091196634 0.09165093
0000d0 6d 3e 55 be 70 fb 93 bd ed 4b ba bb 02 b0 13 3e
       -0.20824595 -0.07225692 -0.0056853206 0.1442261
0000e0 25 4e 52 bc 07 05 7f bd 22 bb ee 3c 46 c2 e7 bc
       -0.012836014 -0.062260654 0.029141966 -0.028290879
0000f0 7c 61 c5 bd df ab d0 3d 1f 0c 98 bd f4 5a 24 3c
       -0.09637734 0.10189032 -0.07424187 0.010031451
000100 c3 58 3e be 46 4d f2 3d c0 f3 f0 3d f2 30 36 3d
       -0.18588547 0.11831145 0.117652416 0.04448027
000110 ac e3 0d be 94 84 3b be 25 05 13 be a8 18 eb 3d
       -0.13856381 -0.18312293 -0.14357431 0.11479312
000120 a9 fe 8d 3d 1d 54 18 3e 2a 96 a8 3d 84 b4 b3 3c
       0.06933338 0.14875837 0.082317665 0.021936662
000130 93 17 2e bc 92 aa 09 be e8 20 25 be b5 6d 30 be
       -0.010625738 -0.13443974 -0.16125834 -0.1722935
000140 d3 67 5d 3d 45 0e cd bd 11 df 49 bd 07 66 cf bd
       0.054054093 -0.10012487 -0.049285 -0.10126882
000150 18 a4 53 bd af 86 0a be ec 98 f8 bd 2d 2f 70 3d
       -0.051670164 -0.1352794 -0.121385425 0.05863874
000160 7f 9f 55 bd 8a 80 df 3d 18 27 75 bd f1 65 0a be
       -0.05215406 0.10913189 -0.059851736 -0.1351545
000170 4e 68 20 bd f3 e0 bb bd 84 a4 97 bd 61 54 2c be
       -0.039161973 -0.09173765 -0.07404426 -0.16829063
000180 ae 96 93 3d 95 a6 09 be be 42 15 3d 60 2f 88 3c
       0.07206474 -0.13442452 0.036440603 0.016624153
000190 a4 72 9d 3d 29 e9 33 be 40 1b 97 3d f6 5b cd bd
       0.076878816 -0.17569412 0.073782444 -0.10027306
0001a0 d6 5b 4d 3d 77 ff 29 3e 63 dc 10 bd a9 fb 93 bd
       0.05013641 0.16601358 -0.035366427 -0.07225735
0001b0 87 bc 11 bd d0 db 1e be 70 af 98 3c 3c ec 5b be
       -0.035580184 -0.1551354 0.018638343 -0.21476835
0001c0 95 ff 5c 3d 8b d1 ad 3d b6 d8 e9 3d eb f1 a3 bd
       0.05395468 0.08487233 0.114182875 -0.080051266
0001d0 59 9b 22 be f4 9c 19 3b 9d a7 61 3d a5 b3 22 be
       -0.15879573 0.0023439499 0.05509149 -0.15888841
0001e0 ba 5b 4b bd 40 3c dc bd 47 47 16 bd ea 4c 01 be
       -0.049648024 -0.10753679 -0.03668907 -0.12626997
0001f0 3e 2d ca bd c5 0a c7 bd 5a 4b 49 be a7 59 d0 3d
       -0.098719105 -0.09718851 -0.1965765 0.1017335
000200 91 58 4e 3e e7 09 37 bd 04 97 1a 3c 38 57 98 bd
       0.20150973 -0.044687178 0.009435419 -0.07438511
000210 48 32 01 be 2e 96 41 be 76 7f be 3c 88 b7 9c bd
       -0.12616837 -0.18904945 0.023254137 -0.07652193
000220 fa 5f 8f bd b4 fa 61 bc c9 af 5b bd 97 f6 2d bd
       -0.07000728 -0.013792682 -0.05363444 -0.042471495
000230 cd b9 e4 3c 42 8d 45 bd b3 35 dd bd dc 8d b9 bd
       0.027920628 -0.048230417 -0.10801258 -0.09060261
000240 59 5d 29 be e7 93 00 3e 45 a7 40 bd 7e 95 96 ba
       -0.16539516 0.1255642 -0.04703452 -0.0011488644
000250 d0 6b 88 bd 4d d9 af 3c cc a5 09 3e 89 84 e5 3d
       -0.066611886 0.021465922 0.13442153 0.1120692
000260 fb 6a f0 bd b8 0d 9b 3d 54 a5 2f 3e c4 0b a7 3c
       -0.11739155 0.07570976 0.17152911 0.020391352
000270 23 ee cc 3d a9 ef 2f 3e 72 03 47 bd d3 be 29 bc
       0.100063585 0.17181267 -0.04858727 -0.010360437
000280 48 71 16 be 51 cf 5d bd 12 70 b7 3d 01 82 4f 3d
       -0.14691651 -0.05415279 0.089569226 0.05066109
000290 4e 49 02 be 42 41 3a be 9a 57 15 be 82 50 47 be
       -0.12723276 -0.18188956 -0.14584199 -0.19464305
0002a0 ee 2c 23 be fc 0f 33 bd 6c a4 a8 3d 01 3c b6 bc
       -0.15935108 -0.043716416 0.08234486 -0.022245409
0002b0 1f 00 22 be e5 f3 16 be aa 97 3e 3d b3 9d 32 be
       -0.15820359 -0.14741476 0.046531357 -0.1744297
0002c0 fb cd 70 bd 20 ac 35 3d 5a b9 f1 bd ed 34 74 bd
       -0.05879019 0.044353604 -0.11802931 -0.059620786
0002d0 9e ae 54 bd cf 0f 9c bd f6 9f f8 bd 17 83 1d be
       -0.05192434 -0.07620203 -0.12139885 -0.15382038
0002e0 17 ef 30 be 9b db c1 bd f7 ee 03 3e 04 00 ed bd
       -0.17278706 -0.094657145 0.12884127 -0.115722686
0002f0 46 5d 15 be 34 62 88 3b 29 f7 3b 3b 9a 30 9c 3d
       -0.14586362 0.0041620973 0.0028681254 0.076264575
000300 a5 e6 7f 3e 7d e1 cf 3d b8 c9 50 bd e3 8c 6a bd
       0.24990328 0.1015043 -0.050973624 -0.057263266
000310 32 06 ef 3d 4a 73 0a 3d 16 d0 ab bd 69 95 7a 3e
       0.116711035 0.033801354 -0.083892986 0.24471058
000320 1a ff 3f 3a ee 1f ce bd bc c0 98 bd 15 6b ae 3d
       0.0007324085 -0.10064684 -0.07458636 0.08516518
000330 97 b4 1a 3e e4 55 3e 3e 0e 27 55 bc 31 5d ac bd
       0.15107952 0.18587452 -0.0130098 -0.08416212
000340 91 8f 12 be 54 26 3e 3e 5b 8d 6d 3e d3 a1 32 bd
       -0.14312579 0.18569309 0.23198454 -0.04361136
000350 13 a0 c4 3c 45 88 d2 3d c8 08 34 3d ff cc c6 bc
       0.02400211 0.102798976 0.043953687 -0.024267672
000360 d3 2b 0b 3e 64 10 eb 3d a1 d3 2a 3e 4e 1e 4d ba
       0.13590936 0.11477736 0.16682293 -0.0007824645
000370 fc 4a 83 3d 1c dd d8 bc d2 c4 8e 3d 56 4a 88 3d
       0.064107865 -0.02647262 0.06971134 0.066548035
000380 3a 2e a4 bc 71 58 23 3e 85 39 2b be 23 d3 c5 bd
       -0.020041574 0.15951706 -0.1672116 -0.09659412
000390 7e 46 c9 3d 87 29 87 bd 77 e3 77 bd 48 06 bd bd
       0.098278984 -0.065997176 -0.06051966 -0.09229714
0003a0 8c b9 03 3e c4 94 b1 3d e6 dd 18 3d 5c 2c fe bd
       0.1286375 0.08670953 0.037320994 -0.12410805
0003b0 08 07 24 be 06 1f 00 3d c5 b8 a8 3c ad f0 e1 bd
       -0.16018307 0.031279586 0.020595917 -0.110322334
0003c0 19 95 8b bd a1 cf be 3d b5 50 94 bc ab bb 89 bc
       -0.068155475 0.09316946 -0.01810489 -0.01681312
0003d0 58 51 7d bd d3 d4 3a be 74 3e 3d be 6f c6 c1 bd
       -0.061845154 -0.18245248 -0.18480855 -0.09461676
0003e0 d0 5b e9 bd c2 96 61 3d e1 61 9d bd 1d 20 b3 bd
       -0.11394465 0.055075414 -0.076846845 -0.087463595
0003f0 d7 5d 07 3e 03 75 a9 3c 34 9b b7 3d bc 33 e9 bd
       0.13219391 0.020685678 0.089651495 -0.11386821

net.3.bias f4 [16]
000000 f2 a2 46 3e e2 5a a7 3d fd 1e 15 be af 12 84 3d
       0.19398096 0.081716314 -0.14562602 0.06448876
000010 e1 fb 43 bd 56 87 a5 bd 86 86 b0 bd 02 19 7e bd
       -0.047847632 -0.08082454 -0.08619408 -0.062035568
000020 af b5 91 3d 2b 9c bc bc d6 6b 04 bd 4d 22 7e 3c
       0.071147315 -0.023023685 -0.032329403 0.015511108
000030 6f ad de bd be 92 23 3e d1 ea 3b be 9b d4 99 bd
       -0.108729236 0.15973946 -0.18351294 -0.075112544

net.5.weight f4 [1, 16]
000000 b9 d9 2a be 52 9f e0 bb a3 0b 81 3d 7b 7d 1e 3e
       -0.16684617 -0.00685493 0.06301048 0.15477555
000010 23 ee fa 3a 22 39 5d 3e 09 7b 87 3d 62 03 d8 3d
       0.0019144457 0.21603826 0.06615264 0.1054752
000020 6d b7 16 3e af 34 24 3e 47 e0 0a bd 4e 6e 45 3e
       0.14718409 0.16035722 -0.033905294 0.19280359
000030 a9 a2 dd 3d 5e 1d 96 bd f6 90 89 bd b4 a2 4c bd
       0.108220406 -0.0732982 -0.06717102 -0.049959853
