pytorch objects/expert_model_regime_1.pth (torch, 6077 bytes, 5 tensors)

net.0.weight f4 [32, 4]
000000 2f 84 bd be 33 27 4e 3e 5f 20 30 3e 78 44 cf be
       -0.3701491 0.20132141 0.17199849 -0.40481925
000010 12 35 03 3e fa 04 9a bd 84 16 69 3e 05 03 85 3e
       0.12813213 -0.075204805 0.22762495 0.25978866
000020 b1 76 cb be 1c db c7 3e 2d c6 c9 3e 74 45 00 3e
       -0.39738992 0.39034355 0.3940901 0.12526494
000030 a3 25 b7 be c6 26 b8 bd b7 a7 77 bd 61 bb 31 be
       -0.35770902 -0.089917704 -0.06046268 -0.17356636
000040 52 c8 8f 3e 44 69 0e 3e a0 45 b7 3e dc dd 19 be
       0.2808252 0.13907343 0.35795307 -0.15026039
000050 37 71 02 3e 69 55 f8 3d a4 5d af be 85 45 ef be
       0.127385 0.12125666 -0.3425113 -0.46732727
000060 f1 ef 61 be 53 ec 8f 3e ff 91 d2 be 31 38 ca be
       -0.22064187 0.2810999 -0.4112701 -0.39495996
000070 6f dd 8d 3e 3f a1 81 3e ce bc 9b 3e 81 df a9 be
       0.27708003 0.25318334 0.30417484 -0.33178332
000080 7f e5 b3 be 58 17 88 3e 33 0f b8 3e 4a 23 89 3e
       -0.3513603 0.2658031 0.35949096 0.26784736
000090 11 aa ab 3d b9 1a 28 3e bb b9 d5 3e 09 5e 96 be
       0.08382047 0.16416444 0.41743264 -0.29368618
0000a0 00 ec 4b be 2a 1d 9c 3e 4f 94 9a be 36 ed 91 be
       -0.19914246 0.30491 -0.30191275 -0.2850129
0000b0 db 1e a2 3e 83 7c f8 3d e9 86 53 3e 8f 24 7c be
       0.31664166 0.12133124 0.20656933 -0.24623321
0000c0 10 f8 a6 bb c3 c8 bd 3e 96 8f 7a be d5 46 82 bd
       -0.0050954893 0.37067232 -0.24468836 -0.063611664
0000d0 98 c2 4d 3e ff de bb be 13 fa d0 3e a2 02 6f be
       0.20093763 -0.3669357 0.4081579 -0.23340848
0000e0 a0 48 de bd b1 1d 0e be 0e f8 8f be a6 48 e0 be
       -0.10853696 -0.13878514 -0.28118938 -0.43805426
0000f0 3e 9c 91 3e 8d ac d0 3d 07 32 d8 be 69 12 9b be
       0.28439516 0.101891614 -0.42225668 -0.30287483
000100 41 5b e6 3e 05 9b 15 3e 18 89 61 3e 18 a1 9f be
       0.44991496 0.14609917 0.22024953 -0.31177592
000110 a9 8e 2a be 37 81 ba bd e5 80 8d bc b4 c0 b4 be
       -0.16655983 -0.09106677 -0.017273376 -0.3530327
000120 5b 77 fe 3c 90 ac f7 3c 90 83 06 bd fd a8 5a 3d
       0.031062772 0.030233651 -0.03284031 0.053383816
000130 36 79 ee bd a8 fe 15 3e 1d 00 47 3e 48 ec 57 be
       -0.11644213 0.14647925 0.19433637 -0.21086228
000140 b0 49 d8 be e7 57 3d 3e cd 40 3a 3e 19 45 86 be
       -0.4224372 0.18490563 0.18188782 -0.26224592
000150 c4 9d e4 3e 7b c2 87 be 71 84 8b 3e 8e 0e 60 3e
       0.44651616 -0.26515564 0.27249482 0.21880552
000160 2f 5c 9a be 1a d3 85 3e 5a 83 c8 be 49 49 a8 be
       -0.30148456 0.2613762 -0.39162713 -0.32868412
000170 c7 0c 17 bd d0 0c a6 be 24 a5 c5 3e d6 36 f1 bd
       -0.03687742 -0.3243165 0.38602555 -0.11778037
000180 71 e6 8d 3e 79 db ba be 06 d6 4a 3e 04 0d 75 bd
       0.27714875 -0.3649557 0.19808206 -0.059826866
000190 13 c9 a0 be e0 e2 a5 3d 6f 51 62 3e 56 9d d1 3e
       -0.31403407 0.080999136 0.22101377 0.4094035
0001a0 c5 ea 34 be 48 c3 3c be 5e 64 60 3d 6f 05 e3 3d
       -0.17667682 -0.18433869 0.054783218 0.11085021
0001b0 91 58 34 3e 64 d0 43 3e bb 68 ad bd 76 1c 63 3e
       0.1761191 0.19122463 -0.084672414 0.22178826
0001c0 ac fd 8d 3e ec 40 46 be ce 73 a4 3e 8b a0 31 3e
       0.277326 -0.19360703 0.32119602 0.17346399
0001d0 0c e9 c8 3e 7f 40 8e be 46 dd 2e be ea 96 47 be
       0.392403 -0.27783582 -0.17076597 -0.19491163
0001e0 cc b8 c8 3b 98 6b 8d 3e 44 5c 50 be 91 2e 17 3e
       0.006125545 0.2762115 -0.20347697 0.14763857
0001f0 94 ce 6a be f5 5a 8b 3e 6e e2 e2 bd 2d 68 c6 be
       -0.22930366 0.27217832 -0.11078344 -0.38751355

net.0.bias f4 [32]
000000 83 f1 99 be 58 86 b8 be 9e 72 09 3e 9d 0c d8 be
       -0.3006707 -0.36039996 0.13422629 -0.42197123
000010 b3 ce 66 bd 84 89 65 3d 0a 74 bb be f8 c5 10 3e
       -0.056349467 0.05603935 -0.36611968 0.14138019
000020 98 d1 07 bf 97 f6 c9 be 76 7a fc be 25 e3 32 be
       -0.5305419 -0.39445946 -0.4931218 -0.17469461
000030 6b f6 7b be ed b5 0e 3d 5f 3d 05 be bf 05 61 3e
       -0.2460572 0.034841467 -0.13011692 0.21974848
000040 25 93 dc 3e a3 0f 3d 3e b8 fd 5d be 8d d9 fe be
       0.43081012 0.18462996 -0.21678817 -0.49775353
000050 6f 16 16 3e ff b6 88 be ce 89 75 3e 80 bf 81 3e
       0.14656995 -0.26702115 0.2397835 0.25341415
000060 f1 12 32 3e 8f 2b e5 3e a1 75 bd 3e 95 14 ab 3d
       0.17390038 0.44759795 0.37003806 0.08353535
000070 08 cd e0 be ad 0d d0 3e 75 ec 9f be ee a5 81 be
       -0.43906426 0.40635434 -0.3123509 -0.25321907

net.3.weight f4 [16, 32]
000000 f4 16 28 3e a7 0f ce 3d e2 96 69 3d e5 41 81 3d
       0.16415006 0.10061579 0.05702866 0.063113965
000010 b6 af e5 bd fe d4 f8 bc fd 4c 35 3e 7b 93 26 3d
       -0.11215155 -0.030375 0.1770515 0.040667992
000020 c7 98 77 3d 7e 61 a7 bd 09 65 ee bd 22 d1 ad 3d
       0.060448434 -0.08172892 -0.11640365 0.084871545
000030 3e b6 8b bc 61 ba ae 3d 45 a8 b3 bc 85 28 d5 3d
       -0.017054673 0.08531643 -0.021930823 0.10408119
000040 c8 80 2f 3d 57 d2 55 3d 56 ef c8 3d 4f c6 20 3e
       0.042847425 0.05220255 0.09811275 0.15700649
000050 05 e4 37 3e 77 5d f6 3d c6 df 4e bd 2b 92 fe bd
       0.17958076 0.12029546 -0.050506376 -0.12430223
000060 46 f0 25 3d c9 95 94 bb 9a 35 23 bd b4 d9 87 bb
       0.040512346 -0.0045344573 -0.03984604 -0.0041458253
000070 4d 2d 04 bc c5 fd cd 3d 9d 22 29 3d 74 fb 59 bd
       -0.008067441 0.10058168 0.041292775 -0.05321832
000080 f9 f6 32 bd 1f 8a 82 3b cb 86 d0 bc 73 93 bb 3d
       -0.043692563 0.0039837505 -0.0254549 0.09158983
000090 33 91 98 3d b4 99 2a 3e ed ab 9d bc a7 dd 47 3d
       0.074495696 0.16660196 -0.01924702 0.04879537
0000a0 ff 93 55 3d 93 ad 70 bd 16 16 81 3d eb 26 8e 3c
       0.052143093 -0.058759283 0.06303041 0.017352542
0000b0 54 46 a7 bd 94 0d 90 bd c2 16 15 3e 8a 6f e0 3d
       -0.08167711 -0.0703384 0.14559463 0.109587744
0000c0 40 ae f6 3d ab c0 21 3e 59 fe 7c bd 90 d6 f2 bc
       0.12044954 0.15796153 -0.061766002 -0.029643327
0000d0 79 5b 83 3d b5 bb da bb 20 e7 c4 bc 43 c8 f1 bd
       0.064139314 -0.0066752085 -0.02403599 -0.11805775
0000e0 2a cf 5c 3d f6 2f 51 bd 7d 76 d0 3c 57 d5 0f 3e
       0.053908505 -0.05107113 0.025447125 0.14046226
0000f0 25 17 db bc 8c f0 d7 bc 4a 95 d6 3d f8 40 9b bd
       -0.026744435 -0.026359819 0.104776934 -0.07580751
000100 f9 12 68 3a 77 0d 4d 3e 00 d1 1e bb 2e 13 2d be
       0.0008852925 0.20024668 -0.002423346 -0.16901848
000110 29 25 10 be b8 00 19 3d ff 03 93 bc 83 78 56 bd
       -0.14076675 0.0373542 -0.017946241 -0.052361023
000120 11 d5 24 3d 6e f3 09 3e 62 03 72 3d 87 93 a2 bd
       0.04024226 0.13471767 0.059085257 -0.07938295
000130 33 e2 2f 3d 71 85 36 bc 72 b5 1d bc 63 61 24 be
       0.04294033 -0.011140213 -0.009625779 -0.16052775
000140 c3 fe d6 3d 85 51 aa bd cb f7 07 be 27 48 50 be
       0.10497811 -0.0831633 -0.1327812 -0.20340024
000150 c3 11 61 3d 5d 48 90 bd f0 77 14 3c 3d b1 16 3e
       0.05494858 -0.07045052 0.009061798 0.14716049
000160 c1 b8 af 3d ef 67 2e 3e d4 00 28 bd 40 d2 14 be
       0.08580161 0.17031835 -0.041016415 -0.14533329
000170 75 d1 80 bd 60 21 4e 3e f6 6c 26 3d a3 2f c0 bd
       -0.06289951 0.20129919 0.040631257 -0.09384086
000180 d6 0a 4b 3c 9e 54 ba bd a9 9b d5 3b 43 18 0c be
       0.01239272 -0.09098171 0.0065188003 -0.1368113
000190 a5 0b ef 3d b4 d0 68 3d b2 82 59 bd 00 5b 2a 3d
       0.11672143 0.05683966 -0.053103156 0.04159069
0001a0 07 0f 35 bd 7e 3e 1e 3e 8c ea 00 3e fb 3c 97 3d
       -0.044203784 0.15453526 0.12589473 0.07384678
0001b0 e7 d1 59 bd 45 ab 4e 3e 73 ae 1f bd 51 1e e7 bd
       -0.053178694 0.20182522 -0.038984727 -0.11285079
0001c0 a4 0e 1c 3e f1 a8 04 3e dc 70 37 3e d6 61 3f 3c
       0.1523996 0.12955071 0.17914146 0.011681041
0001d0 42 33 60 bd 94 72 d8 3d f9 a7 27 3e 8e 05 24 be
       -0.054736383 0.10568729 0.1637267 -0.16017744
0001e0 b0 a4 0f bd 7a 70 12 bd c6 d0 84 3d 42 9f ff 3c
       -0.035069168 -0.035751797 0.06485133 0.03120387
0001f0 99 dd 96 bc 90 49 71 3c c4 25 98 3d 61 d5 10 bd
       -0.018416213 0.014727011 0.07429078 -0.035359744
000200 2a ee c0 bd 0a e6 d5 3d c1 66 61 bd 55 b3 7f bd
       -0.09420426 0.10444267 -0.055029634 -0.062426884
000210 42 4f f5 bb 3d 0f ae 3c e1 6d d4 bd 57 a8 bf 3d
       -0.007486255 0.0212475 -0.1037252 0.0935828
000220 56 c7 19 be 26 88 7c 3c 8e 69 19 3e f8 f4 47 bd
       -0.15017447 0.01541332 0.14981672 -0.048817605
000230 bf a9 07 bd 7f 2f 30 3c 59 c9 c5 bb fa 5f 7e bc
       -0.033120867 0.010753511 -0.0060359654 -0.015525812
000240 5d 54 1b bc 18 78 c0 3d 62 ac 06 be 34 0c cd bd
       -0.009480563 0.09397906 -0.13151696 -0.10012093
000250 cc 8a 93 3c 69 46 29 3d ca 6a e9 3d af 79 b5 bd
       0.01801052 0.041326914 0.113973215 -0.088611
000260 7a f6 04 3d 39 9f 32 3e 57 07 1c 3d 48 5b 83 bd
       0.03246162 0.17443551 0.038092937 -0.06413895
000270 ad c5 fa bd 20 a6 af bc 16 fe 13 be ad f2 16 3e
       -0.12244735 -0.02144152 -0.14452395 0.14741011
000280 3c ae 83 3b a7 e8 3f 3d 8b 10 b0 bd 02 50 75 3d
       0.004018573 0.046852734 -0.08596905 0.059890755
000290 ea 01 88 bd 1f 57 81 3d d6 86 b8 bd 05 0a 2a bd
       -0.0664099 0.06315445 -0.09010093 -0.04151346
0002a0 0b 00 c2 bd ea 42 15 bb 5d f9 c2 3d 84 77 8b 3d
       -0.094726644 -0.002277548 0.095202185 0.06809905
0002b0 1d 4e fc bd 46 82 99 bc ba 5d c9 bc c4 83 07 be
       -0.123195864 -0.018738877 -0.024580825 -0.13233858
0002c0 84 f3 d0 3d 36 20 9d 3b 9b b1 ba 3c 04 02 c5 3a
       0.10202697 0.0047950996 0.022789767 0.0015030508
0002d0 5f a3 2c bd 62 30 1a 3c 46 83 26 3d f8 54 1d 3d
       -0.04214799 0.009410949 0.040652536 0.03841111
0002e0 6c 48 94 bd bb b2 09 3e ca 2d 15 bd 1b 06 c3 bd
       -0.07240376 0.13447087 -0.03642062 -0.09522649
0002f0 56 40 bc bd 19 3a 13 3e 01 0b 54 bb ed a9 1a bd
       -0.091919586 0.14377631 -0.0032355192 -0.03775971
000300 ca 21 a5 bd bc c8 87 bd 02 93 1b be 2f e3 0c be
       -0.080630854 -0.06630084 -0.15192798 -0.13758539
000310 8d a1 96 3d fc 8c b3 3d be f4 f3 3d 26 f8 1b be
       0.07355032 0.08767125 0.11911915 -0.1523138
000320 94 d1 c3 3d 5a 96 0c be 82 e5 57 3d 7a d7 bb 3d
       0.09561458 -0.1372923 0.05270911 0.09171958
000330 17 ec 88 3d 22 43 c4 3d 2a c9 70 3d 1b 31 52 bd
       0.066856556 0.09583117 0.058785595 -0.051316362
000340 80 81 f9 3c a9 81 ce bd 89 b2 62 3d 49 b8 68 bd
       0.030457258 -0.100833245 0.055346046 -0.056816373
000350 15 06 0c bc 01 fe 34 be ec 34 c0 bd 62 b8 f1 bd
       -0.008546372 -0.1767502 -0.09385094 -0.11802746
000360 17 54 ad bd ae 95 08 be c5 94 40 be 5f c1 17 bd
       -0.084633045 -0.13338348 -0.18806751 -0.037049647
000370 2b d7 b5 3d 36 dd d0 3d 9e b2 1c 3d bf e6 e7 bd
       0.08878931 0.10198443 0.03825628 -0.11323308
000380 94 47 2c be c9 46 62 3d 8a ef 95 3d 9a 6d 27 bd
       -0.1682418 0.055243287 0.07321079 -0.04087601
000390 0d 91 b9 3d ce ca 0d 3e 95 cf 45 3d 04 41 d3 bd
       0.09060869 0.13846895 0.04829367 -0.10315135
0003a0 a5 9e 25 3e 08 34 d3 3c 3d db 89 3d cd 38 ee bd
       0.161738 0.025781646 0.067312695 -0.11631928
0003b0 42 56 b4 3d 84 79 0f be 54 c6 3a 3e 79 43 17 bd
       0.08805515 -0.14011198 0.18239719 -0.03692958
0003c0 c1 b9 9f 3d 6d 39 5b 3d 48 e0 09 3d 5f a5 1a bb
       0.077991016 0.053521562 0.033661157 -0.0023597104
0003d0 c3 53 d3 3d f5 89 87 bd 8a 0a 20 be f2 94 8e bd
       0.10318711 -0.0661811 -0.1562902 -0.06962003
0003e0 0d 3d 0d 3e 94 e9 7a bd 7c e7 07 3d 48 2e 86 bc
       0.1379282 -0.061257914 0.033179745 -0.01637949
0003f0 c0 bc f9 3d d6 59 a1 3d 8c 25 72 3d 28 da a3 bd
       0.12194204 0.07878463 0.05911784 -0.080005944

net.3.bias f4 [16]
000000 7a 97 97 3c 79 7e 07 3e be f0 16 3e 49 9d ed 3d
       0.018504847 0.13231839 0.14740273 0.116022654
000010 07 0e 05 be 01 bc 15 3e e7 1a 4f be 94 54 31 3e
       -0.12993632 0.14622499 -0.20225106 0.1731742
000020 d3 bf 7c bd 9e a4 3f be 33 85 5d 3d 18 83 d0 3c
       -0.061706375 -0.1871514 0.054082107 0.025453135
000030 d3 e7 1a be c1 84 af bd 94 66 b8 bb c3 25 0b 3e
       -0.15127496 -0.08570243 -0.0056274626 0.13588624

net.5.weight f4 [1, 16]
000000 89 f4 20 bd a5 51 e5 3d aa bf 9a 3d 2a 61 b8 3c
       -0.039295707 0.11197213 0.07556088 0.022507269
000010 a1 b3 aa 3c ab f2 cb bd 4d 96 29 be 7f d0 74 bd
       0.020837607 -0.099583946 -0.16561241 -0.05976915
000020 20 9b 38 be 02 25 66 bd bf f6 1e 3c ec ae da bd
       -0.18027925 -0.056187637 0.009702384 -0.10677895
000030 e8 0a 29 bc 59 aa 31 3c f2 66 ee b8 56 5e 71 bd
       -0.010317542 0.010843837 -0.000113678994 -0.058927856
