pytorch objects/expert_model_regime_2.pth (torch, 6077 bytes, 5 tensors)

net.0.weight f4 [32, 4]
-0.008263999 0.13541365 0.054054588 -0.21073063 -0.1286371 -0.06003828 -0.2851798 0.008908655
-0.042428017 0.13256232 0.1568065 0.29692996 -0.017177105 -0.34593618 0.187659 -0.31354052
-0.0866619 -0.13567351 -0.17744341 -0.20307457 0.42722636 0.2513182 0.13345513 0.42033112
-0.42008495 0.060163263 0.3275349 0.2912174 -0.3473764 0.14790148 -0.23923416 -0.060689423
-0.10752336 -0.46065268 -0.41840276 -0.33507565 0.25217953 0.19082965 -0.3879385 -0.22204027
-0.0605597 -0.42350382 0.23848926 0.44515648 0.055689055 -0.40169528 0.106528655 0.15323724
0.43997344 -0.28949213 -0.3922864 0.17680301 0.013320667 -0.10574727 -0.23934844 -0.2211486
0.36960882 -0.09350266 0.35887846 0.41065198 0.07822982 0.0038228515 -0.00015352042 0.22538508
-0.39745015 0.1446634 -0.047872074 0.17198889 0.017874716 -0.21133347 -0.032929473 0.24275944
-0.32873806 -0.31001976 -0.087017454 -0.18335484 0.16719948 0.24764763 0.036456373 0.373131
-0.15274087 -0.31775248 -0.22289388 -0.3757538 -0.30914247 -0.48012644 -0.40510374 0.094155885
0.287379 0.4408594 0.4082837 -0.037340827 0.1548925 -0.257536 0.16726531 -0.47586647
0.1514544 0.10761964 0.086958334 0.18727297 -0.20004895 0.3821075 0.26120692 0.28415987
0.07944757 0.27470753 0.32419002 0.20244119 0.37235832 -0.13191086 0.30904216 0.091414645
0.29909933 0.47083005 0.07675217 -0.18698625 -0.03010313 0.0888205 0.06963002 -0.18838605
0.35718068 0.21611744 -0.25198427 -0.09546131 -0.13258962 -0.34426138 0.054504406 -0.0705815
00000000: b965 07bc e0a9 0a3e 5868 5d3d c5c9 57be
00000010: 72b9 03be b3ea 75bd 1603 92be 9bf5 113c
00000020: 00c9 2dbd 6bbe 073e e291 203e 3407 983e
00000030: 00b7 8cbc 8c1e b1be ae29 403e 6288 a0be
00000040: cb7b b1bd ffed 0abe bab3 35be c8f2 4fbe
00000050: 6abd da3e c7ac 803e 76a8 083e a435 d73e
00000060: 6015 d7be c16d 763d a8b2 a73e 721a 953e
00000070: 52db b1be 7c73 173e cdf9 74be 7995 78bd
00000080: 3535 dcbd abda ebbe e338 d6be 098f abbe
00000090: ad1d 813e d968 433e e09f c6be 865e 63be
000000a0: 730d 78bd 7ed5 d8be 8736 743e 8deb e33e
000000b0: 351a 643d 01ab cdbe b22b da3d 39ea 1c3e
000000c0: 3344 e13e 5038 94be c3d9 c8be d90b 353e
000000d0: ed3e 5a3c 0692 d8bd c217 75be c774 62be
000000e0: 5e3d bd3e 537e bfbd ebbe b73e fa40 d23e
000000f0: f536 a03d ce88 7a3b 53fa 20b9 59cb 663e
00000100: 967e cbbe a422 143e 8215 44bd db1d 303e
00000110: ff6d 923c cd67 58be 0ee1 06bd ee95 783e
00000120: 5b50 a8be e9ba 9ebe 3536 b2bd 5fc1 3bbe
00000130: 5736 2b3e 5797 7d3e 4753 153d 070b bf3e
00000140: 1a68 1cbe 74b0 a2be 4b3e 64be cd62 c0be
00000150: ec47 9ebe 22d3 f5be c269 cfbe cdd4 c03d
00000160: 5723 933e 53b8 e13e 900a d13e b2f2 18bd
00000170: 249c 1e3e c2db 83be 9947 2b3e c5a4 f3be
00000180: dd16 1b3e b067 dc3d 3617 b23d 7cc4 3f3e
00000190: a2d9 4cbe 98a3 c33e eabc 853e 677d 913e
000001a0: 68b5 a23d 77a6 8c3e 3cfc a53e be4c 4f3e
000001b0: c0a5 be3e a413 07be c63a 9e3e 9a37 bb3d
000001c0: 8c23 993e a310 f13e 3e30 9d3d 5379 3fbe
000001d0: d79a f6bc 86e7 b53d 2f9a 8e3d 46e8 40be
000001e0: 63e0 b63e e44d 5d3e 1504 81be 3881 c3bd
000001f0: 93c5 07be 0743 b0be 0340 5f3d 098d 90bd

net.0.bias f4 [32]
-0.30806145 -0.20901409 -0.22576885 0.52993375 0.19235128 0.48349938 0.13677448 0.10840803
0.2414148 0.10828816 -0.43198398 -0.3324088 -0.14279248 -0.03988346 0.14532843 0.12941322
0.3789632 0.112549245 -0.24493465 -0.4966299 -0.37591106 -0.30030522 0.15552787 0.3158625
0.49914598 -0.22727741 -0.06793945 -0.15352428 0.04694347 0.08924204 -0.1028796 0.16133732
00000000: 3bba 9dbe ca07 56be f32f 67be bda9 073f
00000010: bcf7 443e 3b8d f73e 9c0e 0c3e 0705 de3d
00000020: 7135 773e 2fc6 dd3d 012d ddbe 7c31 aabe
00000030: 3138 12be d75c 23bd fad0 143e e684 043e
00000040: 7707 c23e 3880 e63d 26d0 7abe 4646 febe
00000050: 6a77 c0be 9bc1 99be b342 1f3e bbb8 a13e
00000060: 1090 ff3e 69bb 68be d723 8bbd 7835 1dbe
00000070: cc47 403d 88c4 b63d 8ab2 d2bd 9c35 253e

net.3.weight f4 [16, 32]
0.038054664 0.07419635 -0.056493025 -0.08415943 0.03896858 -0.028440265 -0.08685898 0.057311792
-0.0022401891 -0.025333475 -0.097445466 -0.010194456 -0.2638679 0.05930593 -0.042576835 0.11349194
-0.016230652 0.0019425409 -0.014852354 0.12616363 -0.041703813 0.09028768 0.03323298 -0.156257
0.11925556 -0.026821937 -0.061239846 -0.13389084 -0.17599556 0.14695439 -0.11447921 0.3202172
-0.14314517 -0.017023558 0.0010633229 0.12133908 -0.032342102 0.05604286 0.021027353 0.10342333
0.017501289 0.053626034 -0.07330137 -0.07245984 0.14562401 -0.10726537 -0.007842487 -0.017280824
0.14555514 -0.04187877 -0.14484483 -0.041893344 0.14052127 0.037368752 0.108669996 -0.045049507
0.10082684 -0.11141924 0.070793375 0.08277227 0.10366949 -0.05069002 -0.01409114 0.14212325
-0.12386053 -0.05549702 -0.078568906 0.03549793 0.107536666 0.071132354 0.07108114 0.07352933
-0.06152557 0.059738543 -0.048829347 -0.17020474 0.14956786 -0.06713004 0.037527148 -0.07526819
0.06732535 -0.030112667 0.012804063 -0.034966927 0.011381417 -0.018966949 0.14348814 -0.11139463
0.11220656 -0.018634437 0.025235998 -0.004781295 0.14242783 0.035959825 -0.1286413 -0.02482679
-0.029115843 0.122947864 0.02862034 -0.14709528 -0.07066382 0.0860869 -0.16142082 0.0695054
0.09285317 0.08699734 0.102838546 -0.059358563 0.09869927 -0.03907509 0.0036195575 -0.013216115
0.07101042 0.120541096 -0.027962063 0.08794457 -0.08915922 -0.043993015 -0.20487104 0.009908366
-0.07963738 0.02075991 0.15305723 0.1846381 -0.096816264 -0.028198466 0.06840253 0.14177337
-0.030837182 -0.08161452 -0.14298278 0.27820277 0.18718213 -0.095392585 0.07404158 0.046208195
0.13677697 -0.053239238 -0.0066638323 0.12552193 0.063912645 0.22184104 -0.028454296 0.042647403
0.09386386 -0.14828715 0.008176735 -0.08019547 0.13912165 -0.12929194 0.056078427 0.20171747
-0.13344991 -0.13151194 -0.09967497 0.15320443 0.0998729 -0.029200489 0.012523004 0.17412385
-0.06465481 0.15112737 0.078799255 -0.06377689 0.05869655 0.040565677 0.0065697995 -0.06324972
-0.09291371 0.107218236 0.0664022 0.13632077 -0.07575728 0.12449799 0.15263452 0.11331671
0.019921971 0.16937366 -0.046813272 0.04010873 0.21796146 0.137496 -0.11678706 0.14207283
0.08437528 0.021152893 0.15831937 -0.09258119 0.10442722 0.22236219 -0.08350967 -0.06541221
-0.09905439 -0.008817609 -0.12409842 -0.07722472 0.087528415 0.13801646 0.06565116 0.13607934
0.07534338 -0.08679241 -0.04519217 0.11677049 0.15119472 0.035310175 0.031548087 -0.058848027
-0.07613959 -0.1295786 0.10644171 0.011184553 -0.081381366 -0.019348318 -0.0005134904 -0.042598944
0.11056233 0.17750187 -0.087509334 -0.1202634 0.035862565 -0.03405139 -0.06670292 0.22746372
-0.032969788 -0.11646184 -0.09727118 -0.1543052 0.10277954 -0.063130535 -0.11088688 -0.14816284
0.0739342 -0.051537804 -0.045651395 -0.057626724 -0.09963905 -0.0049732192 0.08700633 -0.13487415
-0.028347025 -0.1783181 -0.11493654 0.113188505 0.0078033074 0.1434284 -0.053247504 -0.13354273
-0.14208323 0.11782003 -0.16445677 0.049297687 0.009216347 0.030104958 0.056902703 -0.09032491
00000000: 35df 1b3d 42f4 973d 3b65 67bd c75b acbd
00000010: 859d 1f3d 8ffb e8bc 1fe3 b1bd c5bf 6a3d
00000020: 23d0 12bb 2688 cfbc 7d91 c7bd a606 27bc
00000030: b219 87be c6ea 723d 0c65 2ebd 766e e83d
00000040: 25f6 84bc db9c fe3a 4a57 73bc 0a31 013e
00000050: 9ed1 2abd bfe8 b83d 4e1f 083d d601 20be
00000060: 423c f43d aeb9 dbbc a2d6 7abd ae1a 09be
00000070: 2e38 34be 367b 163e 1374 eabd 82f3 a33e
00000080: a694 12be fd74 8bbc 325f 8b3a a080 f83d
00000090: 2779 04bd 338d 653d 8e41 ac3c 9ccf d33d
000000a0: dd5e 8f3c f9a6 5b3d 071f 96bd d365 94bd
000000b0: 761e 153e f2ad dbbd c67d 00bc 8490 8dbc
000000c0: 680c 153e 1389 2bbd 3452 14be 5b98 2bbd
000000d0: cfe4 0f3e fa0f 193d 608e de3d d585 38bd
000000e0: 4d7e ce3d c52f e4bd 1efc 903d 8284 a93d
000000f0: ab50 d43d 57a0 4fbd 86de 66bc c288 113e
00000100: 97aa fdbd d850 63bd bce8 a0bd 4766 113d
00000110: 2f3c dc3d d7ad 913d fd92 913d 8c96 963d
00000120: 3c02 7cbd 67b0 743d 4801 48bd 274a 2ebe
00000130: 5128 193e 797b 89bd 11b6 193d 3526 9abd
00000140: e0e1 893d d7ae f6bc 22c8 513c 7b39 0fbd
00000150: 1f79 3a3c 9360 9bbc 8eee 123e de22 e4bd
00000160: 8ecc e53d 3fa7 98bc b9bb ce3c 69ac 9cbb
00000170: 9ad8 113e 9c4a 133d 8cba 03be 8d61 cbbc
00000180: 5984 eebc 17cc fb3d 3475 ea3c 25a0 16be
00000190: 31b8 90bd 544e b03d 804b 25be d958 8e3d
000001a0: ce29 be3d a92b b23d 049d d23d f721 73bd
000001b0: d822 ca3d 340d 20bd 1936 6d3b 6788 58bc
000001c0: e96d 913d 40de f63d b210 e5bc 481c b43d
000001d0: 1c99 b6bd 0532 34bd b7c9 51be b356 223c
000001e0: ec18 a3bd b010 aa3c 09bb 1c3e c511 3d3e
000001f0: 9b47 c6bd 7800 e7bc a016 8c3d 0a2d 113e
00000200: 429e fcbc 8325 a7bd 146a 12be 9870 8e3e
00000210: acac 3f3e 305d c3bd 1da3 973d ce44 3d3d
00000220: 430f 0c3e 6311 5abd 475c dabb d288 003e
00000230: a2e4 823d 4c2a 633e fc18 e9bc 0baf 2e3d
00000240: b23b c03d 96d8 17be b6f7 053c 863d a4bd
00000250: e875 0e3e 1b65 04be 7eb2 653d 068f 4e3e
00000260: 18a7 08be 11ab 06be 6422 ccbd 9fe1 1c3e
00000270: 2a8a cc3d dd35 efbc 492d 4d3c 864d 323e
00000280: be69 84bd 22c1 1a3e 8161 a13d 759d 82bd
00000290: cb6b 703d 3228 263d 7947 d73b 1289 81bd
000002a0: 8b49 bebd 3c95 db3d e0fd 873d ac97 0b3e
000002b0: a226 9bbd cdf8 fe3d 394c 1c3e 9712 e83d
000002c0: 6733 a33c 4a70 2d3e 46bf 3fbd 0d49 243d
000002d0: 4a31 5f3e c0cb 0c3e 0e2e efbd 8a7b 113e
000002e0: f2cc ac3d d548 ad3c 791e 223e 359b bdbd
000002f0: f0dd d53d eab2 633e 1e07 abbd d6f6 85bd
00000300: 07dd cabd bc77 10bc 5027 febd fe27 9ebd
00000310: 1942 b33d 3054 0d3e 1e74 863d 6258 0b3e
00000320: a14d 9a3d 38c0 b1bd 6d1b 39bd 5e25 ef3d
00000330: cad2 1a3e 67a1 103d 9138 013d a10a 71bd
00000340: 13ef 9bbd 41b0 04be 1cfe d93d 6a3f 373c
00000350: 46ab a6bd 5d80 9ebc c29b 06ba 3b7c 2ebd
00000360: 816e e23d 0dc3 353e 1838 b3bd a84c f6bd
00000370: a0e4 123d 7879 0bbd 8a9b 88bd 40ec 683e
00000380: 540b 07bd 8c83 eebd 1d36 c7bd 2f02 1ebe
00000390: 147e d23d 954a 81bd a918 e3bd 00b8 17be
000003a0: d06a 973d 4e19 53bd f5fc 3abd 000a 6cbd
000003b0: 8f0f ccbd 63f6 a2bb 6030 b23d 731c 0abe
000003c0: 0538 e8bc 0599 36be d963 ebbd 60cf e73d
000003d0: e3b2 ff3b e5de 123e 0e1a 5abd 6dbf 08be
000003e0: 447e 11be a14b f13d 5b67 28be 5fec 493d
000003f0: 2900 173c ac9e f63c cf12 693d 44fc b8bd

net.3.bias f4 [16]
0.049857188 0.059561703 -0.038297825 0.29024154 -0.064402856 -0.018973878 0.3277812 -0.13278139
0.05475377 -0.08007088 0.21592213 0.20574346 -0.14256305 0.10257629 0.24672848 -0.07340261
00000000: 0d37 4c3d f9f6 733d 2ede 1cbd 8a9a 943e
00000010: a5e5 83bd 1b6f 9bbc f0d2 a73e d8f7 07be
00000020: 7d45 603d 34fc a3bd b11a 5d3e 6aae 523e
00000030: 0cfc 11be 8513 d23d 64a6 7c3e 1c54 96bd

net.5.weight f4 [1, 16]
-0.024852665 -0.16851348 0.13722463 -0.031155594 -0.017572304 -0.08576824 -0.11176039 0.065215595
0.013229077 0.12646051 -0.0175254 -0.014390595 0.06909764 -0.027008062 -0.043364108 0.08220657
00000000: d197 cbbc cc8e 2cbe 9d84 0c3e 043a ffbc
00000010: cbf3 8fbc 42a7 afbd a2e2 e4bd c18f 853d
00000020: c5be 583c dd7e 013e 6d91 8fbc 88c6 6bbc
00000030: 1083 8d3d 0340 ddbc 909e 31bd eb5b a83d
